onnx_model/pfe.onnx (onnx, 21120 bytes, 10 tensors)

48 f4 [10, 32]
0	0x38bff1e8	9.152648e-05
1	0xb8ec5e40	-0.000112709124
2	0x3ddeb1c5	0.108737506
3	0x3e1626a2	0.14663175
4	0xb7542f8c	-1.2647255e-05
5	0x3c11e36b	0.008904318
6	0x38e9bf12	0.000111458954
7	0x3b0077ea	0.0019602724
8	0xb9244139	-0.00015664556
9	0x38d863af	0.0001031825
10	0x3c86a4df	0.016436039
11	0xbab2bc00	-0.0013636351
12	0x3aca1499	0.0015417516
13	0xbaa83849	-0.0012834157
14	0xbe6a8b27	-0.22904645
15	0x3dda03ba	0.10645242
16	0xbdadd0f1	-0.08487118
17	0x3a90d952	0.0011051095
18	0xbe40077a	-0.18752852
19	0x391e6e7f	0.00015109217
20	0xbe8a1c56	-0.26974744
21	0xb8d373c7	-0.00010082829
22	0x3f427331	0.7595702
23	0xb9c2f7f6	-0.0003718731
24	0xba4344b6	-0.00074488984
25	0xbdfdb5f5	-0.12388221
26	0xba487035	-0.00076461147
27	0x3a58704c	0.00082564796
28	0xbd130ef7	-0.035902943
29	0xbcbe7a7c	-0.023251764
30	0x3b65851b	0.0035021964
31	0xb88e2e5b	-6.779722e-05
32	0x399b3949	0.00029606585
33	0xb8afd519	-8.384343e-05
34	0xbd992dcd	-0.07479439
35	0x3e0581c5	0.13037784
36	0xb8d06a90	-9.938062e-05
37	0xbdbe00da	-0.09277506
38	0xb83efa32	-4.5532543e-05
39	0xbc1d48b9	-0.009599858
40	0x39df6604	0.00042609882
41	0xb8aa42bb	-8.118661e-05
42	0xbdf5395c	-0.11973831
43	0x3a6b4d2b	0.00089760375
44	0x3a83463f	0.0010015442
45	0x3bd54aed	0.006509176
46	0xbe2bf207	-0.16791545
47	0x3da97022	0.08273341
48	0x3dbacea8	0.09121448
49	0xbb0a1746	-0.0021071
50	0xbe24362b	-0.16036288
51	0x388b7122	6.649109e-05
52	0x3e556d56	0.2084249
53	0x39a3c4aa	0.0003123631
54	0xbd822156	-0.063540146
55	0x37a3ef3d	1.9542518e-05
56	0x3872889e	5.782453e-05
57	0xbcfd341b	-0.030908635
58	0x3b6fb883	0.0036578483
59	0x3d0bea1a	0.034158804
60	0x3dd208b4	0.10255566
61	0xbd75eaac	-0.060038254
62	0x3e0abac5	0.1354781
63	0xba5c3859	-0.00084007304
64	0x3d9be280	0.07611561
65	0xbdc728ce	-0.0972458
66	0xbde01c24	-0.109428674
67	0x3c89a860	0.01680392
68	0x3d71933a	0.058978297
69	0x3ef83603	0.48478708
70	0xbe3f1631	-0.18660809
71	0xbfe7d737	-1.8112553
72	0xbdb4e6c1	-0.08833075
73	0xbbb6ce3c	-0.0055787843
74	0x3cc4dc8e	0.02403095
75	0x3ca54f36	0.020179372
76	0xbd88afb0	-0.06674135
77	0x3f82862d	1.0197197
78	0xbebcaee5	-0.36852184
79	0x3da68a6f	0.08131873
80	0x3dc9c474	0.098519236
81	0xbdf6b7e9	-0.12046797
82	0x3d5ea5de	0.054357402
83	0xbe53a67f	-0.20668982
84	0xbde98f70	-0.11404312
85	0xbe954b04	-0.29158795
86	0x3e590a0c	0.21195239
87	0xbd4c01bf	-0.049806353
88	0x3e80fdbb	0.2519358
89	0x3d63d3df	0.055621978
90	0xc00ca0ff	-2.1973264
91	0xbf17b846	-0.59265554
92	0x3e0307be	0.12795922
93	0xbede4646	-0.4341299
94	0xbd821166	-0.06350975
95	0x3ffca779	1.9738609
96	0x3ba76158	0.00510804
97	0x3aa72564	0.0012752232
98	0xbe5461fe	-0.20740506
99	0xbdc7ad87	-0.097498946
100	0x3ba480e7	0.005020249
101	0xbeb136a6	-0.34612006
102	0xb86f70ef	-5.7087218e-05
103	0xbb2e0c5c	-0.002655766
104	0x3cc6342f	0.024194805
105	0x3bac7091	0.0052624424
106	0xbc0d1706	-0.008611446
107	0x3cbc779e	0.023006257
108	0x3ce108e3	0.027470058
109	0xbe0c849a	-0.13722458
110	0x3e128b82	0.1431103
111	0xbeaf2a42	-0.34211928
112	0xbeb37ea7	-0.35057566
113	0xbe487f2d	-0.19579764
114	0xbe0d341c	-0.1378941
115	0x3c050afe	0.0081202965
116	0xbc4f99b4	-0.012670923
117	0x3c14305c	0.009044733
118	0xbbd8c856	-0.006615679
119	0x3b73d3ef	0.003720518
120	0x3b7a52fb	0.0038196433
121	0xbe84265c	-0.25810516
122	0x3c2ec3b7	0.010666779
123	0xbdfd12a4	-0.12357071
124	0xbdada4b6	-0.08478682
125	0xbe31899a	-0.17337647
126	0x3dae2a62	0.08504178
127	0x3c151770	0.009099826
128	0xbfcf34c7	-1.6187981
129	0x3d411063	0.04713477
130	0x3e964ba6	0.2935459
131	0xbf903fe2	-1.1269495
132	0x3e845dce	0.25852817
133	0xbf7105e7	-0.9414963
134	0xbc6a2fac	-0.014293592
135	0x3ef41bd9	0.47677496
136	0xc038aeb5	-2.8856633
137	0x3f42f6b2	0.7615768
138	0xbf74814d	-0.955098
139	0xbfa797d0	-1.3093204
140	0x3e211c39	0.15733422
141	0xbed32752	-0.41240937
142	0x3f5faa29	0.8736902
143	0xbf264448	-0.6494794
144	0x3ecdef4c	0.40221632
145	0xbf36f01e	-0.7146014
146	0xbd906c71	-0.070519336
147	0x40a6438c	5.1957455
148	0xbeeb6c01	-0.45980838
149	0xbe05c96b	-0.13065116
150	0x3f0e1c24	0.5551169
151	0xc1049a6b	-8.2877
152	0xbfb83449	-1.4390956
153	0x3c30e5ec	0.010797005
154	0x3efb3a86	0.49068087
155	0xbfbca531	-1.4737912
156	0xbfca8392	-1.5821402
157	0xbfda8d45	-1.7074362
158	0x3f3bf900	0.7342682
159	0x3f1b6ace	0.60709846
160	0x40119133	2.2744873
161	0xbf39cee5	-0.7258132
162	0xbf5cf8a3	-0.8631689
163	0xbe02fb2a	-0.12791124
164	0x3fd94c61	1.6976434
165	0x3f37f3ec	0.7185657
166	0x3f02bdb8	0.5107074
167	0xbe37342b	-0.17890994
168	0x3f3aa6af	0.7291059
169	0x3f80768d	1.0036179
170	0xbeaaacbf	-0.3333492
171	0xbe2d8dc3	-0.16948609
172	0xbf94c6d9	-1.1623183
173	0xbf8e5383	-1.1119236
174	0xbf8db95b	-1.1072191
175	0xbe0828d4	-0.13296825
176	0xbee95f67	-0.455806
177	0xbd8ed2a9	-0.06973774
178	0xc008fcc2	-2.140427
179	0x3f132d10	0.57490635
180	0xbeca13af	-0.39468142
181	0xbf2eae3d	-0.68234617
182	0x3f20e780	0.6285324
183	0xbdcaf223	-0.09909465
184	0xbe9b8d42	-0.3038121
185	0xbf663809	-0.8992925
186	0x3f32d7e7	0.6986069
187	0x3ed697a9	0.41912583
188	0x3f19f64c	0.60141444
189	0x3f39d515	0.7259076
190	0xbf05de09	-0.52291924
191	0x3eb59a36	0.35469216
192	0xbf84524b	-1.0337614
193	0x3f24206c	0.6411197
194	0x3e92f039	0.286989
195	0x3eec7a27	0.46186945
196	0xbf2b1228	-0.6682458
197	0x3cdcd1b8	0.02695547
198	0xbe64e5cf	-0.2235329
199	0xbf00e199	-0.50344235
200	0xbf4379f7	-0.7635798
201	0xc02c0d26	-2.6883025
202	0xbc9d84e6	-0.01922841
203	0xbf91826b	-1.1367925
204	0x3f8afdc3	1.0858692
205	0xbec4b10a	-0.3841632
206	0x3f878b3d	1.0589367
207	0x3db64bb7	0.0890116
208	0xbd82b1ef	-0.063815944
209	0xbd19d437	-0.0375559
210	0xbfb4b452	-1.4117529
211	0x3e41d0a0	0.1892724
212	0x400cfada	2.2028108
213	0x3f99bf70	1.2011547
214	0x3fa1550e	1.2604082
215	0x3e059e88	0.13048756
216	0x40324f83	2.786103
217	0xbddd4e93	-0.108060025
218	0xbf2188cc	-0.6309936
219	0xbf315e2b	-0.69284314
220	0x3ff9cf95	1.9516474
221	0x3ed9517c	0.4244498
222	0xbf964d0a	-1.174226
223	0x3e63accf	0.2223389
224	0x3fbd0dfd	1.4769894
225	0x4009d11d	2.1533883
226	0x3d87c875	0.06630031
227	0xbe680e8b	-0.22661798
228	0x3d128e45	0.03578021
229	0xbbd5bb39	-0.006522563
230	0xbfd7aed1	-1.6850225
231	0x3ff4b86a	1.9118779
232	0xbd35ada0	-0.044355035
233	0x3ef7a59b	0.48368534
234	0xbdb96582	-0.09052564
235	0xbdfed8cf	-0.12443697
236	0x3e55ddf1	0.20885445
237	0xbf597e1a	-0.8495804
238	0xbdf2ef12	-0.11862005
239	0x3ca28d87	0.019842876
240	0x3cbfc1e0	0.023407876
241	0xbfc1dfa9	-1.5146381
242	0xbed0cf5a	-0.40783197
243	0xbe9fb41e	-0.31192106
244	0x3ec22371	0.37917665
245	0xbea7aed0	-0.3275056
246	0xbf261f6c	-0.64891696
247	0x3ca627dc	0.020282678
248	0xbf826493	-1.0186943
249	0xbc6750d7	-0.014118395
250	0xbf6c483e	-0.9229773
251	0x3e7d8132	0.24756315
252	0xbe1d0c24	-0.15336663
253	0x3ebe416c	0.37159288
254	0x3e0186db	0.126491
255	0x3fbfee6f	1.4994639

53 f4 [64, 64]
0	0xbd54d7b5	-0.051963527
1	0xbdb29512	-0.08719839
2	0xbe8ea512	-0.27860314
3	0xbf0c3a60	-0.54776573
4	0x3e20d369	0.15705647
5	0xbd3bd315	-0.0458556
6	0xbcc110e1	-0.023567619
7	0x3cf7b74e	0.030238774
8	0xbdeddfe2	-0.11614968
9	0xbc80e81f	-0.015735684
10	0xbc802642	-0.015643243
11	0x3da58322	0.08081652
12	0x3c39f39d	0.011349586
13	0xbe81c5b1	-0.2534614
14	0xbd3bfad1	-0.045893494
15	0x3d45807c	0.048218235
16	0x3c9fa7f8	0.019489273
17	0xbebfb67d	-0.37443915
18	0xbd22228e	-0.039583735
19	0xbe9f9839	-0.31170824
20	0xbe048095	-0.12939675
21	0x3d1bff6e	0.038085394
22	0xbce2518d	-0.027626777
23	0x3d68b4a8	0.056812912
24	0xbe8c263a	-0.27372915
25	0x3d0b622c	0.03402917
26	0x3c90d64d	0.017680312
27	0x3d411c50	0.04714614
28	0x3b8fc12f	0.004387043
29	0xbe01f2c3	-0.12690262
30	0xbd377988	-0.044793636
31	0x3c602e6d	0.013682944
32	0x3d204ec6	0.039137624
33	0x3d8834e3	0.06650712
34	0xbddd467e	-0.10804461
35	0x3ca9a640	0.020709157
36	0xbe86c2c1	-0.2632046
37	0xbef6b3d6	-0.4818408
38	0xbdb3c3cb	-0.08777579
39	0xbc759987	-0.014990217
40	0x3d6ab748	0.057303697
41	0x3c69aade	0.014261929
42	0xbdf4684c	-0.119339556
43	0xbcccd40a	-0.025003452
44	0xbd651bf7	-0.055934872
45	0xbe19ef7f	-0.15032767
46	0xbdaeed9e	-0.08541416
47	0xbca1ae53	-0.019736445
48	0xbd3a8410	-0.0455361
49	0xbf7c4456	-0.9854177
50	0xbf59e9f4	-0.8512261
51	0x3dcb230f	0.09918796
52	0xbca027e1	-0.019550266
53	0x3d91bc93	0.07116046
54	0xbd4c7575	-0.049916703
55	0xbdf8dc0b	-0.12151345
56	0x3bbd0c6c	0.005769303
57	0xbd98f56c	-0.074686855
58	0xbd995330	-0.0748657
59	0xbd84d115	-0.06485192
60	0xbd4f7dfd	-0.05065726
61	0x3c8be891	0.01707867
62	0xbe836b43	-0.25667772
63	0x393ee6be	0.0001820577
64	0x3db37f40	0.087645054
65	0x3dc19760	0.094527006
66	0xbdb11bd6	-0.086478874
67	0xbfac9e1e	-1.3485754
68	0x3c758853	0.0149861155
69	0x3d03a051	0.03213531
70	0xbe9a82a6	-0.30177802
71	0xbd297b0f	-0.041377123
72	0x3e1ae13e	0.15124986
73	0xbd308d37	-0.043103423
74	0x3d58b984	0.052911296
75	0xbe211886	-0.15732011
76	0x3db8533d	0.090002514
77	0xbee5990e	-0.44843334
78	0xbd4615f9	-0.0483608
79	0xbd5362ad	-0.051607776
80	0x3e8cf2b1	0.2752891
81	0x3f026211	0.5093089
82	0x3d3dc3ef	0.046329435
83	0x3e099bd3	0.13438348
84	0x3eb3e5aa	0.35136157
85	0xbdd2c2f6	-0.10291092
86	0x3d62574f	0.055259045
87	0x3e5c305f	0.21502827
88	0xbf1c99ae	-0.61171997
89	0xbc72cc39	-0.014819198
90	0xbe898cb3	-0.26865157
91	0xbc074b45	-0.008257692
92	0x3e64c5be	0.22341058
93	0xbe454ac1	-0.19266798
94	0x3db0cb66	0.08632545
95	0xbe0f76c3	-0.14010148
96	0x3dfa4fb7	0.12222236
97	0xbc742304	-0.0149009265
98	0x3d6c6810	0.05771643
99	0xbdae201b	-0.085022174
100	0x3dc33885	0.095322646
101	0x3dad899a	0.08473511
102	0xbe585a23	-0.21128134
103	0xbf0ce84e	-0.5504197
104	0x3e428e38	0.18999565
105	0x3e12d2a5	0.14338167
106	0x3e02d184	0.12775236
107	0x3d7c33b9	0.061572764
108	0x3d93c7f8	0.072158754
109	0xbf0f25a3	-0.55916804
110	0x3d84aea6	0.06478624
111	0xbe2c3266	-0.168161
112	0x3e0bf1be	0.13666436
113	0x3f48ead2	0.7848331
114	0xbe9447a3	-0.28960904
115	0x3be1597f	0.006877124
116	0x3e1a256c	0.15053338
117	0xbf4cdcbf	-0.8002433
118	0x3c1c389b	0.00953498
119	0x3cc24f7b	0.02371954
120	0xbda8c16a	-0.08240016
121	0xbf7bb65d	-0.9832514
122	0x3dd70149	0.10498292
123	0xbdd71b28	-0.105032265
124	0x3db6c375	0.08923999
125	0xbf920ad9	-1.140956
126	0x3e783c8f	0.24241851
127	0x3e1cd582	0.15315822
128	0xbedbdece	-0.42943424
129	0xbd8c5689	-0.06852443
130	0x3da72c03	0.081626914
131	0xbd1bccbb	-0.038037043
132	0x3ca451fb	0.020058623
133	0xbc33645d	-0.010949221
134	0x3ba68119	0.0050813076
135	0xbd543cc6	-0.05181577
136	0xbe646335	-0.2230347
137	0xbe8faf79	-0.28063563
138	0x3ddba3ef	0.10724627
139	0xbd183dce	-0.037168317
140	0x3cbe1a71	0.023205968
141	0xbdbddd7d	-0.09270761
142	0x3d674bf2	0.05646891
143	0x3d72b902	0.05925847
144	0x3dcbb45b	0.099465095
145	0xbbfd4894	-0.0077295993
146	0xbe298ecd	-0.1655838
147	0x3debc9c6	0.115130946
148	0x3dfc1c42	0.12310077
149	0xbe4d44ba	-0.20045748
150	0xbb1dd2ab	-0.0024081867
151	0x3c32ea6b	0.010920147
152	0xbf52aa1a	-0.82290804
153	0xbe35a50e	-0.17738745
154	0xbdacf16f	-0.08444487
155	0xbc13f910	-0.009031549
156	0xbd94dc8b	-0.07268628
157	0x3e36b439	0.17842187
158	0x3d5b58df	0.05355155
159	0xbdf942f5	-0.12170974
160	0xbe0e5ae5	-0.13901861
161	0xbf228fea	-0.63500845
162	0x3e5be060	0.21472311
163	0xbe751ec2	-0.23937514
164	0x3d17bd64	0.03704585
165	0x3e390539	0.18068399
166	0x3d3aca82	0.045603283
167	0x3d83c295	0.06433598
168	0xbcd76f25	-0.026298115
169	0xbe6cac58	-0.23112619
170	0xbda81ad8	-0.08208245
171	0x3c615a36	0.013754418
172	0xbeae1142	-0.33997542
173	0x3d546d6c	0.051862165
174	0x3d0ee051	0.034881894
175	0x3e27a1de	0.16370341
176	0xb9493f66	-0.00019192472
177	0xbdd96e85	-0.10616783
178	0x3e3c5cfd	0.18394847
179	0xbc0d4235	-0.008621742
180	0xbdb7f49b	-0.08982202
181	0xbc72b241	-0.014813007
182	0xbe27bbfc	-0.16380304
183	0x3d845e41	0.0646329
184	0xbe76d8b7	-0.24106108
185	0x3dca94b2	0.09891643
186	0xbe252b22	-0.16129735
187	0xbc826123	-0.015915459
188	0x3e4d17d9	0.20028628
189	0xbdd23902	-0.102647796
190	0xbc9d0e49	-0.01917185
191	0xbaadbaf7	-0.0013254572
192	0xbe83e968	-0.25764012
193	0x3e0d5411	0.138016
194	0x3e07a8e5	0.13248022
195	0x3ddc3a73	0.10753336
196	0xbd622c49	-0.055218015
197	0xb947cc75	-0.00019054285
198	0x3d011a44	0.03151919
199	0x3d081a90	0.033228457
200	0xbe44b4e4	-0.1920963
201	0xbdeacd24	-0.11464909
202	0x3e3aba12	0.18235043
203	0x3d8b5069	0.068024464
204	0xbcb7ae5b	-0.022422006
205	0xbd03cb81	-0.0321765
206	0xbec17a47	-0.37788603
207	0xbd38bd65	-0.045102496
208	0xbd98880c	-0.07447824
209	0xbd313207	-0.0432606
210	0x3e5e36dd	0.21700616
211	0x3d9f45fd	0.07777021
212	0x3d8cf5f0	0.06882846
213	0xbbd9ab7d	-0.0066427574
214	0x3ca95c11	0.020673783
215	0xbb26865b	-0.0025409672
216	0xbe37cc59	-0.17949046
217	0xbd83a77c	-0.064284295
218	0x3ea419a7	0.3205082
219	0x3c2b8d5d	0.010470715
220	0x3d8bb7b9	0.06822152
221	0xbac06852	-0.0014679527
222	0x3d11a2f4	0.035555795
223	0xbd6a008d	-0.05712943
224	0xbdb46584	-0.08808425
225	0xbeb62a9a	-0.35579377
226	0xbe8f5f28	-0.28002286
227	0xbe46aca2	-0.19401792
228	0x3d9ba409	0.075996466
229	0x3d109a87	0.03530362
230	0xbc84ee20	-0.016226828
231	0xbdd52e80	-0.1040926
232	0x3cde6e0f	0.02715209
233	0xbd6bff72	-0.05761666
234	0xbd624769	-0.055243883
235	0xbd6b4c54	-0.05744584
236	0xbfd23fa1	-1.6425668
237	0xbf033c2e	-0.512637
238	0x3da1f0ae	0.07907234
239	0x3da88d13	0.08230033
240	0x3d8f4c05	0.069969214
241	0x3cd72675	0.026263455
242	0x3d8029cf	0.06257974
243	0x3dac5692	0.084149495
244	0xbde879d9	-0.113513656
245	0x3d06551c	0.03279601
246	0x3be48b44	0.0069746096
247	0x3df7427b	0.12073227
248	0xbe2f02df	-0.17090939
249	0x3d81b49f	0.06333279
250	0xbdf0e25b	-0.11761924
251	0xbc7848f4	-0.015154112
252	0x3df12af2	0.11775769
253	0x3c7b7d98	0.015349768
254	0xbc51a65b	-0.01279601
255	0xbc8b4804	-0.017002113

pfn_layers.0.norm.bias f4 [32]
0	0x00000000	0.0
1	0x00000000	0.0
2	0x00000000	0.0
3	0x00000000	0.0
4	0x00000000	0.0
5	0x00000000	0.0
6	0x00000000	0.0
7	0x00000000	0.0
8	0x00000000	0.0
9	0x00000000	0.0
10	0x00000000	0.0
11	0x00000000	0.0
12	0x00000000	0.0
13	0x00000000	0.0
14	0x00000000	0.0
15	0x00000000	0.0
16	0x00000000	0.0
17	0x00000000	0.0
18	0x00000000	0.0
19	0x00000000	0.0
20	0x00000000	0.0
21	0x00000000	0.0
22	0x00000000	0.0
23	0x00000000	0.0
24	0x00000000	0.0
25	0x00000000	0.0
26	0x00000000	0.0
27	0x00000000	0.0
28	0x00000000	0.0
29	0x00000000	0.0
30	0x00000000	0.0
31	0x00000000	0.0

pfn_layers.0.norm.running_mean f4 [32]
0	0xbe053611	-0.13008906
1	0x3d4a1b93	0.049342703
2	0xbf84e943	-1.0383686
3	0xbf1ca94a	-0.61195815
4	0x3cbf8d5e	0.023382839
5	0xc0070f51	-2.1103098
6	0x3d95d4d8	0.07315987
7	0x3f3f39d6	0.74697626
8	0xbd7e6146	-0.062104486
9	0x3db818ca	0.08989103
10	0xbe07b3f9	-0.13252248
11	0x3c404083	0.011734131
12	0x3e3d928d	0.18512936
13	0xbf95b77d	-1.1696621
14	0x3f799ae6	0.9750198
15	0xbff379d2	-1.9021552
16	0xbfef6cb8	-1.8705053
17	0xbf86510b	-1.0493482
18	0xbf434250	-0.7627306
19	0x3f086db2	0.5329238
20	0xbd57da6d	-0.05269854
21	0x3e1e216c	0.15442437
22	0xbda68919	-0.08131618
23	0xbf1c1502	-0.60969555
24	0xbe45c4b4	-0.19313318
25	0xbfb275b4	-1.394217
26	0x3f7936a7	0.9734902
27	0xbf090708	-0.53526354
28	0xbf1fc177	-0.6240458
29	0xbf622a50	-0.88345814
30	0x3f09a84f	0.53772444
31	0xbf316613	-0.6929638

pfn_layers.0.norm.running_var f4 [32]
0	0x3e576eaa	0.21038309
1	0x3e87c363	0.26516256
2	0x40f0440c	7.5083065
3	0x40684d05	3.629701
4	0x3d9cb0f9	0.07650942
5	0x41a9ddac	21.233238
6	0x3e7641c4	0.24048525
7	0x40354b19	2.8327086
8	0x3e1a1543	0.15047173
9	0x3d4bafd3	0.049728226
10	0x3f5bd6de	0.85874736
11	0x3db0ea87	0.086384825
12	0x3e13f775	0.14449866
13	0x40977823	4.733415
14	0x40fadbed	7.8393464
15	0x41a03975	20.028055
16	0x41a2ea3c	20.364372
17	0x40cc14b2	6.3775263
18	0x40c4f58b	6.1549735
19	0x3f455683	0.7708513
20	0x40b88307	5.7659945
21	0x3e13f1e4	0.14447743
22	0x41d40eff	26.507322
23	0x3f9a325a	1.2046616
24	0x3e2a299c	0.16617435
25	0x41378991	11.471086
26	0x409d4a70	4.9153366
27	0x4028d970	2.6382713
28	0x400840ba	2.1289506
29	0x40a6b831	5.2099843
30	0x4014ac9b	2.323035
31	0x40723f42	3.785111

pfn_layers.0.norm.weight f4 [32]
0	0x3f5183b6	0.818416
1	0x3f22011b	0.63282937
2	0x3f5614a4	0.83625245
3	0x3f337ae4	0.7010939
4	0x3ea6db4c	0.32589185
5	0x3f3df98a	0.7420889
6	0x3eba022c	0.36329782
7	0x3e9da574	0.30790293
8	0x3e9b4fc0	0.30334282
9	0x3e78bf0c	0.24291629
10	0x3e247554	0.16060382
11	0x3ee56318	0.44802165
12	0x3f500c6a	0.8126894
13	0x3f73042c	0.9492824
14	0x3eedbb1c	0.46431816
15	0x3f192a01	0.5982972
16	0x3f44a3cc	0.76812434
17	0x3f14381c	0.57898116
18	0x3ecb39fc	0.39692676
19	0x3eef43d0	0.46731424
20	0x3ee615d6	0.44938534
21	0x3f6e0082	0.92969525
22	0x3dc85368	0.097815335
23	0x3eee1788	0.46502328
24	0x3f0d6dab	0.55245465
25	0x3e0f1d88	0.13976109
26	0x3f40f3a0	0.7537174
27	0x3e906936	0.2820527
28	0x3e9cef00	0.30651093
29	0x3eb029ec	0.34406984
30	0x3f159250	0.5842638
31	0x3eb4efe0	0.3533926

pfn_layers.1.norm.bias f4 [64]
0	0x00000000	0.0
1	0x00000000	0.0
2	0x00000000	0.0
3	0x00000000	0.0
4	0x00000000	0.0
5	0x00000000	0.0
6	0x00000000	0.0
7	0x00000000	0.0
8	0x00000000	0.0
9	0x00000000	0.0
10	0x00000000	0.0
11	0x00000000	0.0
12	0x00000000	0.0
13	0x00000000	0.0
14	0x00000000	0.0
15	0x00000000	0.0
16	0x00000000	0.0
17	0x00000000	0.0
18	0x00000000	0.0
19	0x00000000	0.0
20	0x00000000	0.0
21	0x00000000	0.0
22	0x00000000	0.0
23	0x00000000	0.0
24	0x00000000	0.0
25	0x00000000	0.0
26	0x00000000	0.0
27	0x00000000	0.0
28	0x00000000	0.0
29	0x00000000	0.0
30	0x00000000	0.0
31	0x00000000	0.0
32	0x00000000	0.0
33	0x00000000	0.0
34	0x00000000	0.0
35	0x00000000	0.0
36	0x00000000	0.0
37	0x00000000	0.0
38	0x00000000	0.0
39	0x00000000	0.0
40	0x00000000	0.0
41	0x00000000	0.0
42	0x00000000	0.0
43	0x00000000	0.0
44	0x00000000	0.0
45	0x00000000	0.0
46	0x00000000	0.0
47	0x00000000	0.0
48	0x00000000	0.0
49	0x00000000	0.0
50	0x00000000	0.0
51	0x00000000	0.0
52	0x00000000	0.0
53	0x00000000	0.0
54	0x00000000	0.0
55	0x00000000	0.0
56	0x00000000	0.0
57	0x00000000	0.0
58	0x00000000	0.0
59	0x00000000	0.0
60	0x00000000	0.0
61	0x00000000	0.0
62	0x00000000	0.0
63	0x00000000	0.0

pfn_layers.1.norm.running_mean f4 [64]
0	0x3db44fb4	0.08804265
1	0xbe34eda7	-0.17668782
2	0xbfc0abb8	-1.5052404
3	0xbff220f5	-1.8916308
4	0x3fa81f5b	1.3134569
5	0xbe3df32c	-0.18549794
6	0xbef8f458	-0.4862392
7	0xbf6836a8	-0.907084
8	0xbf5b3cf8	-0.85639906
9	0xbf18a410	-0.5962534
10	0xbf55529f	-0.83329195
11	0x3e026041	0.1273203
12	0xbe317921	-0.17331363
13	0xbf92fddd	-1.1483723
14	0xbf2fa190	-0.686059
15	0xbdec40ff	-0.115358345
16	0x3f8d3809	1.1032726
17	0x3f419bab	0.75628155
18	0xbfe6a207	-1.8018197
19	0x4004cde8	2.0750675
20	0x3eaeba23	0.34126386
21	0xbe96b668	-0.2943604
22	0xbe6a0dc4	-0.22856814
23	0x3f210ccb	0.62910146
24	0xbf53754c	-0.82600856
25	0xbd5cbb78	-0.05388972
26	0xbf2a50a1	-0.6652928
27	0xbdd87a7b	-0.10570236
28	0x3d96f28d	0.07370482
29	0xbfc41ed7	-1.5321912
30	0x3e12bd97	0.14330135
31	0x3e82157d	0.2540702
32	0xbf87e4b5	-1.0616671
33	0xbfb4e689	-1.4132854
34	0x3e17520c	0.14777392
35	0xbf6fd67e	-0.93686664
36	0xbf20e224	-0.62845063
37	0xbf3c2490	-0.7349329
38	0xbe6e5cb5	-0.23277552
39	0x3fc65a77	1.5496358
40	0xbd398947	-0.045296934
41	0xbe007869	-0.12545933
42	0xbed25ff7	-0.4108884
43	0xbf23ee50	-0.6403551
44	0xbf927538	-1.1442022
45	0xbeae8af5	-0.3409039
46	0xbe5c0fbb	-0.21490376
47	0xbec26686	-0.37968844
48	0x3ec5626a	0.38551646
49	0x3f066360	0.52495384
50	0xbfc12184	-1.5088353
51	0xbe4df6d2	-0.20113686
52	0x3f0860f2	0.53272927
53	0xbcd5d9da	-0.026104856
54	0x3dcbcb97	0.09950941
55	0xbb7921db	-0.0038014564
56	0xbd09957a	-0.033589818
57	0xbe976b43	-0.29574022
58	0xbeaa7f17	-0.33300087
59	0xbe5e5dec	-0.21715516
60	0xbf2b7fca	-0.66991866
61	0xbec3298e	-0.3811764
62	0xbf53b04f	-0.826909
63	0xbf8aa0d6	-1.0830333

pfn_layers.1.norm.running_var f4 [64]
0	0x3e6228f2	0.22085932
1	0x3e459687	0.19295703
2	0x3e19a1dd	0.15003152
3	0x3f7f0b8f	0.9962701
4	0x3e19be26	0.15013942
5	0x3e3eb539	0.18623818
6	0x3e319e4c	0.17345542
7	0x3e23ca7c	0.1599521
8	0x3ec304c0	0.3808956
9	0x3de6fde4	0.112788945
10	0x3dc75116	0.09732263
11	0x3db70a18	0.08937472
12	0x3e230b50	0.15922284
13	0x3e396e73	0.1810854
14	0x3dcbfe0a	0.099605635
15	0x3d42393e	0.04741787
16	0x3f59af91	0.8503352
17	0x3f17f349	0.593556
18	0x3f5c7fe7	0.86132663
19	0x40e1b3d4	7.0532017
20	0x3e0ec183	0.13941006
21	0x3e523197	0.2052673
22	0x3c14c38a	0.009079823
23	0x3dac4951	0.084124215
24	0x3ec2f2ac	0.3807577
25	0x3eaaf0c2	0.3338681
26	0x3e217f64	0.15771252
27	0x3d5e520c	0.054277465
28	0x3f4b5ad5	0.79435474
29	0x3eb103b1	0.3457313
30	0x3dbed25c	0.093174666
31	0x3e4c8a22	0.19974568
32	0x3e84b0bb	0.25916085
33	0x3e3c36f0	0.18380332
34	0x3e02d2bd	0.12775703
35	0x3eccd8bd	0.40009108
36	0x3da6370f	0.0811597
37	0x3e907003	0.28210458
38	0x3e053cfa	0.13011542
39	0x3f74632d	0.9546383
40	0x3dceeb42	0.101034656
41	0x3e05e50c	0.13075656
42	0x3ceb7070	0.028740138
43	0x3dbbceaf	0.09170281
44	0x3f30117a	0.6877667
45	0x3e9289ba	0.28620702
46	0x3d49b02f	0.049240287
47	0x3e0e234b	0.1388065
48	0x3d6cc3fc	0.057804093
49	0x3dc5e5a7	0.09662943
50	0x3f206fb7	0.62670463
51	0x3ed72daf	0.4202704
52	0x3e550be1	0.20805313
53	0x3e086b86	0.13322267
54	0x3dd08877	0.101822786
55	0x3d3f8dbb	0.046766024
56	0x3d51d54f	0.051228818
57	0x3ea1cfb4	0.31603777
58	0x3e4c6e52	0.19963959
59	0x3e2d7c6b	0.16941993
60	0x3e8edf34	0.27904665
61	0x3eb879f5	0.36030546
62	0x3eb80efa	0.35948926
63	0x3eab931a	0.33510667

pfn_layers.1.norm.weight f4 [64]
0	0x3ecae268	0.3962586
1	0x3edaa012	0.4270025
2	0x3e0e6c58	0.13908517
3	0x3eb61406	0.35562152
4	0x3e349d48	0.17638123
5	0x3f774c9e	0.96601284
6	0x3f245ac0	0.64200974
7	0x3ef8886e	0.48541588
8	0x3f726005	0.94677764
9	0x3da68170	0.08130157
10	0x3d4a6940	0.04941678
11	0x3e634ca8	0.22197211
12	0x3f7f733a	0.99785197
13	0x3e31bcb8	0.17357147
14	0x3e0267c8	0.12734902
15	0x3e83a928	0.25714993
16	0x3e5cf0cc	0.21576232
17	0x3e859772	0.26092106
18	0x3f4de784	0.8043139
19	0x3f4b48ca	0.7940794
20	0x3e1e6a28	0.15470183
21	0x3f1b33f9	0.6062618
22	0x3f00e1d1	0.5034457
23	0x3e74cb0c	0.23905581
24	0x3f661027	0.89868397
25	0x3f7427ea	0.95373404
26	0x3e10aaa8	0.141276
27	0x3ddb9cd8	0.10723275
28	0x3f0d4007	0.5517582
29	0x3e9b4426	0.3032543
30	0x3ef25cb0	0.4733634
31	0x3f58a608	0.84628344
32	0x3f50a22f	0.8149747
33	0x3dbebcf0	0.09313381
34	0x3da91fb0	0.08257997
35	0x3f3b19fa	0.7308651
36	0x3e976234	0.2956711
37	0x3e84d6d0	0.2594514
38	0x3f3f9297	0.74833053
39	0x3f7eb998	0.99501944
40	0x3ed966fe	0.4246139
41	0x3f46910a	0.7756506
42	0x3d83b650	0.06431258
43	0x3ef8bc18	0.48581004
44	0x3f62accd	0.88544923
45	0x3f1bd0c0	0.608654
46	0x3e368174	0.1782282
47	0x3f1f53ec	0.6223743
48	0x3f1bf309	0.6091772
49	0x3d27ec40	0.04099679
50	0x3f4819b7	0.7816424
51	0x3f62ee6d	0.8864506
52	0x3e7b6b74	0.24552709
53	0x3f28f6a0	0.6600132
54	0x3d7c2300	0.061556816
55	0x3dad5920	0.08464265
56	0x3df88b38	0.12135929
57	0x3f2ec3f0	0.68267727
58	0x3f55a416	0.834535
59	0x3f0677f5	0.5252679
60	0x3f2b30ef	0.6687154
61	0x3f0f115f	0.5588588
62	0x3f7bcac1	0.9835625
63	0x3ed84af0	0.42244673
