onnx_model/pfe_sim.onnx (onnx, 20561 bytes, 10 tensors)

48 f4 [32, 10, 1, 1]
0	0x38bff1e8	9.152648e-05
1	0x399b3949	0.00029606585
2	0x3d9be280	0.07611561
3	0x3ba76158	0.00510804
4	0xbfcf34c7	-1.6187981
5	0x40119133	2.2744873
6	0xbf84524b	-1.0337614
7	0x3fbd0dfd	1.4769894
8	0xc0431920	-3.0484085
9	0x3f759956	0.959371
10	0xb8ec5e40	-0.000112709124
11	0xb8afd519	-8.384343e-05
12	0xbdc728ce	-0.0972458
13	0x3aa72564	0.0012752232
14	0x3d411063	0.04713477
15	0xbf39cee5	-0.7258132
16	0x3f24206c	0.6411197
17	0x4009d11d	2.1533883
18	0x3f3b2be2	0.73113835
19	0xbf2294aa	-0.63508093
20	0x3ddeb1c5	0.108737506
21	0xbd992dcd	-0.07479439
22	0xbde01c24	-0.109428674
23	0xbe5461fe	-0.20740506
24	0x3e964ba6	0.2935459
25	0xbf5cf8a3	-0.8631689
26	0x3e92f039	0.286989
27	0x3d87c875	0.06630031
28	0x3f3d8a36	0.7403902
29	0xbe5e241b	-0.2169346
30	0x3e1626a2	0.14663175
31	0x3e0581c5	0.13037784
32	0x3c89a860	0.01680392
33	0xbdc7ad87	-0.097498946
34	0xbf903fe2	-1.1269495
35	0xbe02fb2a	-0.12791124
36	0x3eec7a27	0.46186945
37	0xbe680e8b	-0.22661798
38	0xbf92222e	-1.1416681
39	0x3ef67532	0.48136288
40	0xb7542f8c	-1.2647255e-05
41	0xb8d06a90	-9.938062e-05
42	0x3d71933a	0.058978297
43	0x3ba480e7	0.005020249
44	0x3e845dce	0.25852817
45	0x3fd94c61	1.6976434
46	0xbf2b1228	-0.6682458
47	0x3d128e45	0.03578021
48	0x40c96e8e	6.2947454
49	0x3fb576a1	1.4176828
50	0x3c11e36b	0.008904318
51	0xbdbe00da	-0.09277506
52	0x3ef83603	0.48478708
53	0xbeb136a6	-0.34612006
54	0xbf7105e7	-0.9414963
55	0x3f37f3ec	0.7185657
56	0x3cdcd1b8	0.02695547
57	0xbbd5bb39	-0.006522563
58	0x3dcbcfa5	0.099517144
59	0x3e9231a2	0.28553492
60	0x38e9bf12	0.000111458954
61	0xb83efa32	-4.5532543e-05
62	0xbe3f1631	-0.18660809
63	0xb86f70ef	-5.7087218e-05
64	0xbc6a2fac	-0.014293592
65	0x3f02bdb8	0.5107074
66	0xbe64e5cf	-0.2235329
67	0xbfd7aed1	-1.6850225
68	0xbf04972d	-0.51793176
69	0x3e70fdad	0.2353427
70	0x3b0077ea	0.0019602724
71	0xbc1d48b9	-0.009599858
72	0xbfe7d737	-1.8112553
73	0xbb2e0c5c	-0.002655766
74	0x3ef41bd9	0.47677496
75	0xbe37342b	-0.17890994
76	0xbf00e199	-0.50344235
77	0x3ff4b86a	1.9118779
78	0xbed2afe3	-0.41149816
79	0xbf9e9c30	-1.2391415
80	0xb9244139	-0.00015664556
81	0x39df6604	0.00042609882
82	0xbdb4e6c1	-0.08833075
83	0x3cc6342f	0.024194805
84	0xc038aeb5	-2.8856633
85	0x3f3aa6af	0.7291059
86	0xbf4379f7	-0.7635798
87	0xbd35ada0	-0.044355035
88	0x4031f297	2.7804315
89	0xbf8fc48e	-1.1231859
90	0x38d863af	0.0001031825
91	0xb8aa42bb	-8.118661e-05
92	0xbbb6ce3c	-0.0055787843
93	0x3bac7091	0.0052624424
94	0x3f42f6b2	0.7615768
95	0x3f80768d	1.0036179
96	0xc02c0d26	-2.6883025
97	0x3ef7a59b	0.48368534
98	0xbf93ca67	-1.1546143
99	0x409d857d	4.922545
100	0x3c86a4df	0.016436039
101	0xbdf5395c	-0.11973831
102	0x3cc4dc8e	0.02403095
103	0xbc0d1706	-0.008611446
104	0xbf74814d	-0.955098
105	0xbeaaacbf	-0.3333492
106	0xbc9d84e6	-0.01922841
107	0xbdb96582	-0.09052564
108	0x3ef116b8	0.47087646
109	0x3fe70db0	1.8051052
110	0xbab2bc00	-0.0013636351
111	0x3a6b4d2b	0.00089760375
112	0x3ca54f36	0.020179372
113	0x3cbc779e	0.023006257
114	0xbfa797d0	-1.3093204
115	0xbe2d8dc3	-0.16948609
116	0xbf91826b	-1.1367925
117	0xbdfed8cf	-0.12443697
118	0xbed5374c	-0.4164375
119	0x407f9d5f	3.9939802
120	0x3aca1499	0.0015417516
121	0x3a83463f	0.0010015442
122	0xbd88afb0	-0.06674135
123	0x3ce108e3	0.027470058
124	0x3e211c39	0.15733422
125	0xbf94c6d9	-1.1623183
126	0x3f8afdc3	1.0858692
127	0x3e55ddf1	0.20885445
128	0x3fa9b885	1.3259436
129	0xbfa309c6	-1.2737358
130	0xbaa83849	-0.0012834157
131	0x3bd54aed	0.006509176
132	0x3f82862d	1.0197197
133	0xbe0c849a	-0.13722458
134	0xbed32752	-0.41240937
135	0xbf8e5383	-1.1119236
136	0xbec4b10a	-0.3841632
137	0xbf597e1a	-0.8495804
138	0x3fd27618	1.6442289
139	0x3f13a87f	0.5767898
140	0xbe6a8b27	-0.22904645
141	0xbe2bf207	-0.16791545
142	0xbebcaee5	-0.36852184
143	0x3e128b82	0.1431103
144	0x3f5faa29	0.8736902
145	0xbf8db95b	-1.1072191
146	0x3f878b3d	1.0589367
147	0xbdf2ef12	-0.11862005
148	0xc00508e9	-2.0786688
149	0xbfc53493	-1.5406669
150	0x3dda03ba	0.10645242
151	0x3da97022	0.08273341
152	0x3da68a6f	0.08131873
153	0xbeaf2a42	-0.34211928
154	0xbf264448	-0.6494794
155	0xbe0828d4	-0.13296825
156	0x3db64bb7	0.0890116
157	0x3ca28d87	0.019842876
158	0x3c8bbbc8	0.017057315
159	0xbe29ab9c	-0.1656937
160	0xbdadd0f1	-0.08487118
161	0x3dbacea8	0.09121448
162	0x3dc9c474	0.098519236
163	0xbeb37ea7	-0.35057566
164	0x3ecdef4c	0.40221632
165	0xbee95f67	-0.455806
166	0xbd82b1ef	-0.063815944
167	0x3cbfc1e0	0.023407876
168	0xbe27a727	-0.16372357
169	0x3f0fb754	0.5613911
170	0x3a90d952	0.0011051095
171	0xbb0a1746	-0.0021071
172	0xbdf6b7e9	-0.12046797
173	0xbe487f2d	-0.19579764
174	0xbf36f01e	-0.7146014
175	0xbd8ed2a9	-0.06973774
176	0xbd19d437	-0.0375559
177	0xbfc1dfa9	-1.5146381
178	0xbcc294f9	-0.023752676
179	0xbe2acaf2	-0.1667898
180	0xbe40077a	-0.18752852
181	0xbe24362b	-0.16036288
182	0x3d5ea5de	0.054357402
183	0xbe0d341c	-0.1378941
184	0xbd906c71	-0.070519336
185	0xc008fcc2	-2.140427
186	0xbfb4b452	-1.4117529
187	0xbed0cf5a	-0.40783197
188	0x3e08928a	0.1333715
189	0xbf0ddc88	-0.5541463
190	0x391e6e7f	0.00015109217
191	0x388b7122	6.649109e-05
192	0xbe53a67f	-0.20668982
193	0x3c050afe	0.0081202965
194	0x40a6438c	5.1957455
195	0x3f132d10	0.57490635
196	0x3e41d0a0	0.1892724
197	0xbe9fb41e	-0.31192106
198	0xbf789a54	-0.97110486
199	0xbf43267a	-0.76230586
200	0xbe8a1c56	-0.26974744
201	0x3e556d56	0.2084249
202	0xbde98f70	-0.11404312
203	0xbc4f99b4	-0.012670923
204	0xbeeb6c01	-0.45980838
205	0xbeca13af	-0.39468142
206	0x400cfada	2.2028108
207	0x3ec22371	0.37917665
208	0xbef21cb7	-0.47287533
209	0x3fa17f20	1.261692
210	0xb8d373c7	-0.00010082829
211	0x39a3c4aa	0.0003123631
212	0xbe954b04	-0.29158795
213	0x3c14305c	0.009044733
214	0xbe05c96b	-0.13065116
215	0xbf2eae3d	-0.68234617
216	0x3f99bf70	1.2011547
217	0xbea7aed0	-0.3275056
218	0xc08c0e9e	-4.3767843
219	0xbfc388e7	-1.5276154
220	0x3f427331	0.7595702
221	0xbd822156	-0.063540146
222	0x3e590a0c	0.21195239
223	0xbbd8c856	-0.006615679
224	0x3f0e1c24	0.5551169
225	0x3f20e780	0.6285324
226	0x3fa1550e	1.2604082
227	0xbf261f6c	-0.64891696
228	0xbf4a42ff	-0.7900848
229	0x3e3af72e	0.18258354
230	0xb9c2f7f6	-0.0003718731
231	0x37a3ef3d	1.9542518e-05
232	0xbd4c01bf	-0.049806353
233	0x3b73d3ef	0.003720518
234	0xc1049a6b	-8.2877
235	0xbdcaf223	-0.09909465
236	0x3e059e88	0.13048756
237	0x3ca627dc	0.020282678
238	0x3cd174b7	0.02556835
239	0xbeab889e	-0.33502668
240	0xba4344b6	-0.00074488984
241	0x3872889e	5.782453e-05
242	0x3e80fdbb	0.2519358
243	0x3b7a52fb	0.0038196433
244	0xbfb83449	-1.4390956
245	0xbe9b8d42	-0.3038121
246	0x40324f83	2.786103
247	0xbf826493	-1.0186943
248	0xbdcc0f3d	-0.09963844
249	0xc081e09c	-4.058668
250	0xbdfdb5f5	-0.12388221
251	0xbcfd341b	-0.030908635
252	0x3d63d3df	0.055621978
253	0xbe84265c	-0.25810516
254	0x3c30e5ec	0.010797005
255	0xbf663809	-0.8992925

53 f4 [64, 64, 1, 1]
0	0xbd54d7b5	-0.051963527
1	0x3db37f40	0.087645054
2	0xbedbdece	-0.42943424
3	0xbe83e968	-0.25764012
4	0xbe98802b	-0.29785284
5	0x3de289f0	0.11061466
6	0xbf01bd33	-0.5067932
7	0x3e528451	0.20558287
8	0xbe1263bb	-0.14295857
9	0x3df1c6cd	0.11805496
10	0xbdf15552	-0.11783852
11	0x3c9cad20	0.019125521
12	0xbd6bc89f	-0.057564374
13	0x3e2f9e62	0.17150262
14	0x3e9c4156	0.30518597
15	0x3cf988c9	0.030460732
16	0xbe2deb0e	-0.16984197
17	0x3eccb537	0.39982006
18	0xbbf23fb1	-0.0073928465
19	0xbd05a237	-0.032625403
20	0x3e8d2a4a	0.27571326
21	0xbe061fb5	-0.13098033
22	0xbffa865d	-1.9572254
23	0x3e84277b	0.2581137
24	0x3d55b1c1	0.052171472
25	0x3d4d318d	0.050096083
26	0x3cb4548e	0.022012975
27	0x3c3121d4	0.010811288
28	0xbdb937e4	-0.090438634
29	0xbe803b78	-0.2504537
30	0x3d29ad2c	0.041424915
31	0xbe8ecc8d	-0.27890435
32	0x3db7d9ab	0.08977064
33	0xbc48d351	-0.012257413
34	0xbd5e41c3	-0.054261934
35	0x3d242d5f	0.04008233
36	0x3e530abe	0.20609567
37	0xbe002d65	-0.12517317
38	0x3de682f4	0.11255446
39	0xbdcd35c7	-0.10020023
40	0x3db9f71a	0.09080334
41	0x3d349b25	0.04409327
42	0xbe32e362	-0.17469552
43	0x3e005a60	0.12534475
44	0xbdad253f	-0.0845437
45	0x3abd9c44	0.0014466126
46	0x3e2708da	0.1631197
47	0xbee3c66e	-0.44487327
48	0xbe2d5ef3	-0.16930752
49	0xbe225508	-0.1585275
50	0x3cda4a9d	0.026646907
51	0x3d949f78	0.07256979
52	0x3e1287a1	0.14309551
53	0x3d877ca3	0.066155694
54	0xbe9ea750	-0.30987024
55	0x3df02193	0.11725154
56	0xbd6a48e3	-0.057198416
57	0xbe3345e3	-0.17507128
58	0x3d88d954	0.06682077
59	0x3e09d990	0.134619
60	0xbdafc632	-0.08582725
61	0xbe649f9c	-0.22326511
62	0x3cd76cf2	0.026297066
63	0xbe1af09d	-0.15130849
64	0xbdb29512	-0.08719839
65	0x3dc19760	0.094527006
66	0xbd8c5689	-0.06852443
67	0x3e0d5411	0.138016
68	0xbb240a7b	-0.002503066
69	0x3bb48ac0	0.0055097044
70	0xbf23057b	-0.6368024
71	0x3d812f72	0.063078776
72	0xbd418b46	-0.047251962
73	0x3dd8e205	0.10589985
74	0x3e0ba7b9	0.136382
75	0xbc82ebb0	-0.015981525
76	0x3e7e6f3a	0.24847117
77	0x3e203ada	0.1564745
78	0xbee615ee	-0.44938606
79	0xbde1f87a	-0.11033721
80	0xbd1b6164	-0.037934676
81	0x3e247ef0	0.16064048
82	0xbf1b3dbc	-0.60641074
83	0xbdeeab20	-0.11653733
84	0xbe5abe19	-0.21361579
85	0xbdf8895c	-0.12135574
86	0x3efcb9ed	0.493606
87	0x3e31248e	0.17299101
88	0xbd65b469	-0.056080256
89	0xbe2467f2	-0.16055277
90	0x3d7f00c9	0.06225661
91	0x3d0981a4	0.0335709
92	0xbdfc25a6	-0.12311868
93	0xbe874431	-0.26419213
94	0xbd1b0a10	-0.037851393
95	0xbeb82386	-0.35964602
96	0x3d51b546	0.051198266
97	0x3b4bea2f	0.0031114926
98	0xbda92e33	-0.08260765
99	0x3d8da4c1	0.0691619
100	0x3db8c1b2	0.090213194
101	0xbd12ad32	-0.035809703
102	0x3cddfbde	0.027097639
103	0xbd17f95c	-0.037103042
104	0x3e0b7300	0.13618088
105	0x3d66a998	0.05631408
106	0x3e21a448	0.15785325
107	0x3e43ebe0	0.19132948
108	0xbcebb736	-0.028773885
109	0xbda66f4e	-0.081266984
110	0xbe4f7a91	-0.20261599
111	0xbe31a12a	-0.17346635
112	0xbe7845fa	-0.24245444
113	0xbe7ef801	-0.24899293
114	0x3d954136	0.072878286
115	0x3db94e1a	0.090481
116	0xbcf69229	-0.030098991
117	0xbaec9d19	-0.001805219
118	0x3f3f405e	0.7470759
119	0xbe04fb75	-0.12986548
120	0xbc9ae2a1	-0.018906893
121	0x3caf1adf	0.021375118
122	0x3dbe7a5e	0.093006834
123	0x3c2f96c4	0.010717098
124	0xbd9e088b	-0.07716473
125	0xbea29989	-0.31757763
126	0x3d005550	0.03133136
127	0xbdd1cbeb	-0.102439724
128	0xbe8ea512	-0.27860314
129	0xbdb11bd6	-0.086478874
130	0x3da72c03	0.081626914
131	0x3e07a8e5	0.13248022
132	0xbec743a9	-0.38918808
133	0xbd9ecdc5	-0.07754091
134	0xbdbf9d44	-0.09356168
135	0xbeb7c797	-0.35894462
136	0x3d66c88d	0.056343604
137	0xbe923ffc	-0.2856444
138	0x3c9f1425	0.019418785
139	0x3e3ebad2	0.18625954
140	0xbd9a9034	-0.07547036
141	0xbd55686d	-0.05210154
142	0x3d912624	0.07087353
143	0xbde9670a	-0.11396606
144	0x3d356b6b	0.044291895
145	0xbe857aad	-0.26070157
146	0xbc959338	-0.018258676
147	0x3d967346	0.073462054
148	0x3e458ffc	0.19293207
149	0xbc8a33cf	-0.016870407
150	0x3d45e485	0.048313636
151	0xbe6913d7	-0.22761475
152	0x3e58e2e7	0.21180306
153	0xbda8a98d	-0.08235464
154	0xbea9749b	-0.33096775
155	0x3d290fad	0.041274715
156	0xbde4d9e0	-0.11174369
157	0xbf39598e	-0.72402275
158	0x3da0ff3b	0.07861181
159	0xbf175eba	-0.59128916
160	0xbda0ef29	-0.07858116
161	0x3dfa2554	0.12214151
162	0x3da6d54e	0.081461534
163	0xbda0cd09	-0.07851607
164	0xbd9b52a1	-0.075841196
165	0x3ba82014	0.005130777
166	0x3e9899b5	0.2980477
167	0xbf27fa04	-0.6561587
168	0xbda3e524	-0.080026895
169	0xbdd2a462	-0.1028526
170	0xbec3203a	-0.38110524
171	0xbca26a68	-0.01982613
172	0x3db8fff3	0.090331934
173	0x3e8467f7	0.2586057
174	0xbddd5354	-0.10806909
175	0xbe2254ce	-0.15852663
176	0xbe73934e	-0.23786661
177	0xbf044461	-0.5166684
178	0x3c8e85ae	0.017397728
179	0xbe2c9073	-0.16851978
180	0xbd9d0770	-0.07667434
181	0xbc90d2bd	-0.017678613
182	0xbf0548f1	-0.52064425
183	0xbebfd1d2	-0.37464768
184	0xbe07456c	-0.13210076
185	0x3e65ceb1	0.22442128
186	0xbd870950	-0.06593573
187	0xbeb68bf7	-0.3565366
188	0xbe0b7b3a	-0.13621226
189	0xbef900ae	-0.4863333
190	0xbd24ecfa	-0.04026506
191	0xbe92ec8c	-0.28696096
192	0xbf0c3a60	-0.54776573
193	0xbfac9e1e	-1.3485754
194	0xbd1bccbb	-0.038037043
195	0x3ddc3a73	0.10753336
196	0xbdafda97	-0.085866146
197	0xbea11621	-0.31462196
198	0xbe6f1c4d	-0.2335064
199	0x3e8ae584	0.27128232
200	0x3e8b6205	0.2722322
201	0xbe4a32fd	-0.19746013
202	0x3ef2322e	0.4730391
203	0x3e3cd7be	0.18441674
204	0xbd90d4fc	-0.070718735
205	0xbf02b297	-0.51053756
206	0xbd03c566	-0.032170676
207	0xbe51c3bb	-0.20484821
208	0xbe8df3f5	-0.27725187
209	0xbf1e72e7	-0.6189408
210	0x3e15f505	0.14644249
211	0xbf682eee	-0.9069661
212	0x3dcf0e55	0.101101555
213	0x3d82ee6c	0.063931316
214	0x3d8b6415	0.068061985
215	0x3e56eb02	0.20988086
216	0xbeaebf28	-0.34130216
217	0xbe879cd1	-0.2648683
218	0x3e7ce83b	0.24697964
219	0x3e0db258	0.13837564
220	0x3e2b217b	0.1671199
221	0xbda839b2	-0.082141295
222	0x3d918d4b	0.071070276
223	0xbefbcff1	-0.49182084
224	0x3d5453b6	0.051837645
225	0x3e2c498a	0.16824928
226	0xbe222aa7	-0.15836583
227	0xbd41d571	-0.047322694
228	0xbe56b9bb	-0.20969288
229	0xbe7af555	-0.24507649
230	0x3de79896	0.113084
231	0x3e035210	0.12824273
232	0xbd80751b	-0.06272336
233	0x3d648521	0.055791024
234	0x3e3c41b7	0.18384443
235	0x3e1c9674	0.15291768
236	0xbdbfbb78	-0.09361929
237	0xbf0be46d	-0.54645425
238	0xbdaaa367	-0.08331948
239	0xbe2cbd52	-0.16869095
240	0xbe4802dd	-0.19532342
241	0xbf6ae70e	-0.9175881
242	0xbd473926	-0.048638485
243	0x3d166527	0.03671756
244	0xbd4bcad6	-0.049753986
245	0x3b59941e	0.0033199857
246	0xbe96821f	-0.2939615
247	0xbe912026	-0.2834484
248	0xbe3b3dbd	-0.1828527
249	0xbee640e7	-0.44971392
250	0xbdb74b73	-0.08949938
251	0x3cfe94c7	0.031076802
252	0xbdec47f9	-0.11537165
253	0xbd801f45	-0.06255964
254	0x3d65a377	0.056064095
255	0xbebe34f5	-0.37149778

pfn_layers.0.norm.bias f4 [32]
0	0x00000000	0.0
1	0x00000000	0.0
2	0x00000000	0.0
3	0x00000000	0.0
4	0x00000000	0.0
5	0x00000000	0.0
6	0x00000000	0.0
7	0x00000000	0.0
8	0x00000000	0.0
9	0x00000000	0.0
10	0x00000000	0.0
11	0x00000000	0.0
12	0x00000000	0.0
13	0x00000000	0.0
14	0x00000000	0.0
15	0x00000000	0.0
16	0x00000000	0.0
17	0x00000000	0.0
18	0x00000000	0.0
19	0x00000000	0.0
20	0x00000000	0.0
21	0x00000000	0.0
22	0x00000000	0.0
23	0x00000000	0.0
24	0x00000000	0.0
25	0x00000000	0.0
26	0x00000000	0.0
27	0x00000000	0.0
28	0x00000000	0.0
29	0x00000000	0.0
30	0x00000000	0.0
31	0x00000000	0.0

pfn_layers.0.norm.running_mean f4 [32]
0	0xbe053611	-0.13008906
1	0x3d4a1b93	0.049342703
2	0xbf84e943	-1.0383686
3	0xbf1ca94a	-0.61195815
4	0x3cbf8d5e	0.023382839
5	0xc0070f51	-2.1103098
6	0x3d95d4d8	0.07315987
7	0x3f3f39d6	0.74697626
8	0xbd7e6146	-0.062104486
9	0x3db818ca	0.08989103
10	0xbe07b3f9	-0.13252248
11	0x3c404083	0.011734131
12	0x3e3d928d	0.18512936
13	0xbf95b77d	-1.1696621
14	0x3f799ae6	0.9750198
15	0xbff379d2	-1.9021552
16	0xbfef6cb8	-1.8705053
17	0xbf86510b	-1.0493482
18	0xbf434250	-0.7627306
19	0x3f086db2	0.5329238
20	0xbd57da6d	-0.05269854
21	0x3e1e216c	0.15442437
22	0xbda68919	-0.08131618
23	0xbf1c1502	-0.60969555
24	0xbe45c4b4	-0.19313318
25	0xbfb275b4	-1.394217
26	0x3f7936a7	0.9734902
27	0xbf090708	-0.53526354
28	0xbf1fc177	-0.6240458
29	0xbf622a50	-0.88345814
30	0x3f09a84f	0.53772444
31	0xbf316613	-0.6929638

pfn_layers.0.norm.running_var f4 [32]
0	0x3e576eaa	0.21038309
1	0x3e87c363	0.26516256
2	0x40f0440c	7.5083065
3	0x40684d05	3.629701
4	0x3d9cb0f9	0.07650942
5	0x41a9ddac	21.233238
6	0x3e7641c4	0.24048525
7	0x40354b19	2.8327086
8	0x3e1a1543	0.15047173
9	0x3d4bafd3	0.049728226
10	0x3f5bd6de	0.85874736
11	0x3db0ea87	0.086384825
12	0x3e13f775	0.14449866
13	0x40977823	4.733415
14	0x40fadbed	7.8393464
15	0x41a03975	20.028055
16	0x41a2ea3c	20.364372
17	0x40cc14b2	6.3775263
18	0x40c4f58b	6.1549735
19	0x3f455683	0.7708513
20	0x40b88307	5.7659945
21	0x3e13f1e4	0.14447743
22	0x41d40eff	26.507322
23	0x3f9a325a	1.2046616
24	0x3e2a299c	0.16617435
25	0x41378991	11.471086
26	0x409d4a70	4.9153366
27	0x4028d970	2.6382713
28	0x400840ba	2.1289506
29	0x40a6b831	5.2099843
30	0x4014ac9b	2.323035
31	0x40723f42	3.785111

pfn_layers.0.norm.weight f4 [32]
0	0x3f5183b6	0.818416
1	0x3f22011b	0.63282937
2	0x3f5614a4	0.83625245
3	0x3f337ae4	0.7010939
4	0x3ea6db4c	0.32589185
5	0x3f3df98a	0.7420889
6	0x3eba022c	0.36329782
7	0x3e9da574	0.30790293
8	0x3e9b4fc0	0.30334282
9	0x3e78bf0c	0.24291629
10	0x3e247554	0.16060382
11	0x3ee56318	0.44802165
12	0x3f500c6a	0.8126894
13	0x3f73042c	0.9492824
14	0x3eedbb1c	0.46431816
15	0x3f192a01	0.5982972
16	0x3f44a3cc	0.76812434
17	0x3f14381c	0.57898116
18	0x3ecb39fc	0.39692676
19	0x3eef43d0	0.46731424
20	0x3ee615d6	0.44938534
21	0x3f6e0082	0.92969525
22	0x3dc85368	0.097815335
23	0x3eee1788	0.46502328
24	0x3f0d6dab	0.55245465
25	0x3e0f1d88	0.13976109
26	0x3f40f3a0	0.7537174
27	0x3e906936	0.2820527
28	0x3e9cef00	0.30651093
29	0x3eb029ec	0.34406984
30	0x3f159250	0.5842638
31	0x3eb4efe0	0.3533926

pfn_layers.1.norm.bias f4 [64]
0	0x00000000	0.0
1	0x00000000	0.0
2	0x00000000	0.0
3	0x00000000	0.0
4	0x00000000	0.0
5	0x00000000	0.0
6	0x00000000	0.0
7	0x00000000	0.0
8	0x00000000	0.0
9	0x00000000	0.0
10	0x00000000	0.0
11	0x00000000	0.0
12	0x00000000	0.0
13	0x00000000	0.0
14	0x00000000	0.0
15	0x00000000	0.0
16	0x00000000	0.0
17	0x00000000	0.0
18	0x00000000	0.0
19	0x00000000	0.0
20	0x00000000	0.0
21	0x00000000	0.0
22	0x00000000	0.0
23	0x00000000	0.0
24	0x00000000	0.0
25	0x00000000	0.0
26	0x00000000	0.0
27	0x00000000	0.0
28	0x00000000	0.0
29	0x00000000	0.0
30	0x00000000	0.0
31	0x00000000	0.0
32	0x00000000	0.0
33	0x00000000	0.0
34	0x00000000	0.0
35	0x00000000	0.0
36	0x00000000	0.0
37	0x00000000	0.0
38	0x00000000	0.0
39	0x00000000	0.0
40	0x00000000	0.0
41	0x00000000	0.0
42	0x00000000	0.0
43	0x00000000	0.0
44	0x00000000	0.0
45	0x00000000	0.0
46	0x00000000	0.0
47	0x00000000	0.0
48	0x00000000	0.0
49	0x00000000	0.0
50	0x00000000	0.0
51	0x00000000	0.0
52	0x00000000	0.0
53	0x00000000	0.0
54	0x00000000	0.0
55	0x00000000	0.0
56	0x00000000	0.0
57	0x00000000	0.0
58	0x00000000	0.0
59	0x00000000	0.0
60	0x00000000	0.0
61	0x00000000	0.0
62	0x00000000	0.0
63	0x00000000	0.0

pfn_layers.1.norm.running_mean f4 [64]
0	0x3db44fb4	0.08804265
1	0xbe34eda7	-0.17668782
2	0xbfc0abb8	-1.5052404
3	0xbff220f5	-1.8916308
4	0x3fa81f5b	1.3134569
5	0xbe3df32c	-0.18549794
6	0xbef8f458	-0.4862392
7	0xbf6836a8	-0.907084
8	0xbf5b3cf8	-0.85639906
9	0xbf18a410	-0.5962534
10	0xbf55529f	-0.83329195
11	0x3e026041	0.1273203
12	0xbe317921	-0.17331363
13	0xbf92fddd	-1.1483723
14	0xbf2fa190	-0.686059
15	0xbdec40ff	-0.115358345
16	0x3f8d3809	1.1032726
17	0x3f419bab	0.75628155
18	0xbfe6a207	-1.8018197
19	0x4004cde8	2.0750675
20	0x3eaeba23	0.34126386
21	0xbe96b668	-0.2943604
22	0xbe6a0dc4	-0.22856814
23	0x3f210ccb	0.62910146
24	0xbf53754c	-0.82600856
25	0xbd5cbb78	-0.05388972
26	0xbf2a50a1	-0.6652928
27	0xbdd87a7b	-0.10570236
28	0x3d96f28d	0.07370482
29	0xbfc41ed7	-1.5321912
30	0x3e12bd97	0.14330135
31	0x3e82157d	0.2540702
32	0xbf87e4b5	-1.0616671
33	0xbfb4e689	-1.4132854
34	0x3e17520c	0.14777392
35	0xbf6fd67e	-0.93686664
36	0xbf20e224	-0.62845063
37	0xbf3c2490	-0.7349329
38	0xbe6e5cb5	-0.23277552
39	0x3fc65a77	1.5496358
40	0xbd398947	-0.045296934
41	0xbe007869	-0.12545933
42	0xbed25ff7	-0.4108884
43	0xbf23ee50	-0.6403551
44	0xbf927538	-1.1442022
45	0xbeae8af5	-0.3409039
46	0xbe5c0fbb	-0.21490376
47	0xbec26686	-0.37968844
48	0x3ec5626a	0.38551646
49	0x3f066360	0.52495384
50	0xbfc12184	-1.5088353
51	0xbe4df6d2	-0.20113686
52	0x3f0860f2	0.53272927
53	0xbcd5d9da	-0.026104856
54	0x3dcbcb97	0.09950941
55	0xbb7921db	-0.0038014564
56	0xbd09957a	-0.033589818
57	0xbe976b43	-0.29574022
58	0xbeaa7f17	-0.33300087
59	0xbe5e5dec	-0.21715516
60	0xbf2b7fca	-0.66991866
61	0xbec3298e	-0.3811764
62	0xbf53b04f	-0.826909
63	0xbf8aa0d6	-1.0830333

pfn_layers.1.norm.running_var f4 [64]
0	0x3e6228f2	0.22085932
1	0x3e459687	0.19295703
2	0x3e19a1dd	0.15003152
3	0x3f7f0b8f	0.9962701
4	0x3e19be26	0.15013942
5	0x3e3eb539	0.18623818
6	0x3e319e4c	0.17345542
7	0x3e23ca7c	0.1599521
8	0x3ec304c0	0.3808956
9	0x3de6fde4	0.112788945
10	0x3dc75116	0.09732263
11	0x3db70a18	0.08937472
12	0x3e230b50	0.15922284
13	0x3e396e73	0.1810854
14	0x3dcbfe0a	0.099605635
15	0x3d42393e	0.04741787
16	0x3f59af91	0.8503352
17	0x3f17f349	0.593556
18	0x3f5c7fe7	0.86132663
19	0x40e1b3d4	7.0532017
20	0x3e0ec183	0.13941006
21	0x3e523197	0.2052673
22	0x3c14c38a	0.009079823
23	0x3dac4951	0.084124215
24	0x3ec2f2ac	0.3807577
25	0x3eaaf0c2	0.3338681
26	0x3e217f64	0.15771252
27	0x3d5e520c	0.054277465
28	0x3f4b5ad5	0.79435474
29	0x3eb103b1	0.3457313
30	0x3dbed25c	0.093174666
31	0x3e4c8a22	0.19974568
32	0x3e84b0bb	0.25916085
33	0x3e3c36f0	0.18380332
34	0x3e02d2bd	0.12775703
35	0x3eccd8bd	0.40009108
36	0x3da6370f	0.0811597
37	0x3e907003	0.28210458
38	0x3e053cfa	0.13011542
39	0x3f74632d	0.9546383
40	0x3dceeb42	0.101034656
41	0x3e05e50c	0.13075656
42	0x3ceb7070	0.028740138
43	0x3dbbceaf	0.09170281
44	0x3f30117a	0.6877667
45	0x3e9289ba	0.28620702
46	0x3d49b02f	0.049240287
47	0x3e0e234b	0.1388065
48	0x3d6cc3fc	0.057804093
49	0x3dc5e5a7	0.09662943
50	0x3f206fb7	0.62670463
51	0x3ed72daf	0.4202704
52	0x3e550be1	0.20805313
53	0x3e086b86	0.13322267
54	0x3dd08877	0.101822786
55	0x3d3f8dbb	0.046766024
56	0x3d51d54f	0.051228818
57	0x3ea1cfb4	0.31603777
58	0x3e4c6e52	0.19963959
59	0x3e2d7c6b	0.16941993
60	0x3e8edf34	0.27904665
61	0x3eb879f5	0.36030546
62	0x3eb80efa	0.35948926
63	0x3eab931a	0.33510667

pfn_layers.1.norm.weight f4 [64]
0	0x3ecae268	0.3962586
1	0x3edaa012	0.4270025
2	0x3e0e6c58	0.13908517
3	0x3eb61406	0.35562152
4	0x3e349d48	0.17638123
5	0x3f774c9e	0.96601284
6	0x3f245ac0	0.64200974
7	0x3ef8886e	0.48541588
8	0x3f726005	0.94677764
9	0x3da68170	0.08130157
10	0x3d4a6940	0.04941678
11	0x3e634ca8	0.22197211
12	0x3f7f733a	0.99785197
13	0x3e31bcb8	0.17357147
14	0x3e0267c8	0.12734902
15	0x3e83a928	0.25714993
16	0x3e5cf0cc	0.21576232
17	0x3e859772	0.26092106
18	0x3f4de784	0.8043139
19	0x3f4b48ca	0.7940794
20	0x3e1e6a28	0.15470183
21	0x3f1b33f9	0.6062618
22	0x3f00e1d1	0.5034457
23	0x3e74cb0c	0.23905581
24	0x3f661027	0.89868397
25	0x3f7427ea	0.95373404
26	0x3e10aaa8	0.141276
27	0x3ddb9cd8	0.10723275
28	0x3f0d4007	0.5517582
29	0x3e9b4426	0.3032543
30	0x3ef25cb0	0.4733634
31	0x3f58a608	0.84628344
32	0x3f50a22f	0.8149747
33	0x3dbebcf0	0.09313381
34	0x3da91fb0	0.08257997
35	0x3f3b19fa	0.7308651
36	0x3e976234	0.2956711
37	0x3e84d6d0	0.2594514
38	0x3f3f9297	0.74833053
39	0x3f7eb998	0.99501944
40	0x3ed966fe	0.4246139
41	0x3f46910a	0.7756506
42	0x3d83b650	0.06431258
43	0x3ef8bc18	0.48581004
44	0x3f62accd	0.88544923
45	0x3f1bd0c0	0.608654
46	0x3e368174	0.1782282
47	0x3f1f53ec	0.6223743
48	0x3f1bf309	0.6091772
49	0x3d27ec40	0.04099679
50	0x3f4819b7	0.7816424
51	0x3f62ee6d	0.8864506
52	0x3e7b6b74	0.24552709
53	0x3f28f6a0	0.6600132
54	0x3d7c2300	0.061556816
55	0x3dad5920	0.08464265
56	0x3df88b38	0.12135929
57	0x3f2ec3f0	0.68267727
58	0x3f55a416	0.834535
59	0x3f0677f5	0.5252679
60	0x3f2b30ef	0.6687154
61	0x3f0f115f	0.5588588
62	0x3f7bcac1	0.9835625
63	0x3ed84af0	0.42244673
